chatbot_model_lite_20231130.tflite (tflite, 437148 bytes, 6 tensors)

sequential/dense_1/BiasAdd/ReadVariableOp f4 [64]
00000000: 6fed 493d 3d1e 80bd 5999 c13d c844 ab3d
00000010: b980 f83d 0b9e 3e3d 64a9 fbbb 129e 6f3c
00000020: 9b48 003e 3fc0 413d 5ee0 b93c 1c44 953d
00000030: 9cdd 983d 3cee b7bd 3827 d13d 6d5c 2bbc
00000040: 4b3a a5bd b5c6 ab3d 94a7 cabc c117 b03d
00000050: 25db d53d bae9 af3d 4934 373d 2d0e 85bc
00000060: c052 adbd dad4 c9bd 6659 f93d d864 c33c
00000070: 73ac 1e3e dc48 a13d b08d a33c a08b 10be
00000080: b8c5 60bd 94bc 633e 0937 7b3c 64e8 ca3c
00000090: 74cf 54bd df1a 0e3e 72d8 0c3d ed8e 1c3d
000000a0: f3cc 813d 4b11 ca3c 948b 44bb cea6 a63b
000000b0: d505 a83d 461a c03c 515e 143e 7351 20be
000000c0: f0a6 1e3e 7e7c 963c 8ceb 3c3d c3a6 36bd
000000d0: a84c 7a3d 239d f13d 9ca0 353e f0cd 353e
000000e0: 0d6e 9d3d 3983 0f3e ea9d ab3c c203 8c3d
000000f0: f10a 5bbc 145c 273b c716 d23d ea79 20bd
0.0492987 -0.062557675 0.09453077 0.08362728 0.12133927 0.04653744 -0.007680105 0.014625089
0.12527697 0.04730248 0.022689994 0.072883815 0.07464144 -0.089809865 0.102125585 -0.010459048
-0.08067759 0.0838751 -0.02473811 0.08598281 0.10442189 0.08589502 0.044727597 -0.016242111
-0.08463049 -0.09855051 0.121752545 0.023851797 0.15495472 0.07875225 0.019965023 -0.14115763
-0.05487606 0.22239906 0.015332946 0.024769016 -0.051955655 0.13877438 0.034386106 0.038222242
0.06337919 0.024666449 -0.0029990422 0.0050858026 0.08204237 0.023450028 0.14489104 -0.1565607
0.15493369 0.01836991 0.046123073 -0.04459263 0.06110826 0.117975496 0.17737049 0.1775434
0.07687006 0.14014901 0.020949323 0.06836654 -0.013369308 0.002553706 0.10258251 -0.039178766

sequential/dense_2/BiasAdd/ReadVariableOp f4 [28]
00000000: d55c 3abc 4574 02be 6369 26be 6752 e5bd
00000010: 02dd 8dbe ed77 c7be 6f8b 40be c9f3 7abe
00000020: fd88 80be 004d a13d 8f6c 37be f1d2 c33d
00000030: 47d5 2cbe c4b0 07be 0456 dcbd 4a66 9dbe
00000040: 68ba 2d3c c43e 15bd df22 3f3e ea02 723b
00000050: b4ba 29be b0e1 623d 7c3c 09be e691 55be
00000060: 2298 babd fb55 9dbe b1be 85be 23b9 883d
-0.011374672 -0.12739666 -0.1625114 -0.111973576 -0.27707678 -0.38958684 -0.1880319 -0.24507059
-0.25104514 0.07876015 -0.17912506 0.09561718 -0.16878234 -0.13251024 -0.10758594 -0.30742103
0.010603525 -0.03643681 0.18665646 0.0036928006 -0.16575128 0.055391014 -0.13401979 -0.20856437
-0.09111048 -0.3072966 -0.26122048 0.06675937

sequential/dense/BiasAdd/ReadVariableOp f4 [128]
00000000: 4064 213d 315c 783d 00c6 6a3c ae66 b13d
00000010: 0e27 0f3e 2373 3d3b 5900 a93d a9bc 753d
00000020: e714 a13d 09a5 0a3d 7a71 b63c 39a7 f1bd
00000030: dc66 b2bb 7759 fd3d 9e47 18bd 93fe 2c3d
00000040: 5e0e e9bc bbf0 9a3d 7702 e63d d82d 443e
00000050: 5d28 1d3d 401e 753c 309b ac3c f65a ad3d
00000060: 1775 bfbb 2b96 ef3d ee4b e13d 408a 6f3e
00000070: 15fb a3bc ea2b c63d cf9d d73d fddc d23d
00000080: 8c8c 9fbd 62eb b3ba bf78 533d d5ed 243d
00000090: 91e4 c13b cdaa 293e 7758 d53d 80f5 3c3e
000000a0: 1a18 003e cbcc b33d ec5c c53d fea7 053c
000000b0: a838 20bd b63b 263d df58 0c3e 413a 133e
000000c0: ef1e 793d 9d33 583d c86d da3c 6f43 ae3d
000000d0: 30a0 c43d 134e 80bb 1c49 c53c bbcc b53d
000000e0: ce88 2c3d 0780 933d e17a b93d ff56 c03c
000000f0: 6b47 783d 9b0b 6e3d c73b 1d3e ec93 103d
00000100: c3ba 103e 3c6c 7abc 6115 503d fdee c23d
00000110: 794b ef3b 0c95 823d 96ca 8a3d e071 f7bc
00000120: 1e36 383d 9bac 1d3e e1f4 cb3a d1d1 06bc
00000130: ebda 013c 2aa1 c33d f5a1 963d 0a30 0c3e
00000140: 2241 583d 6d3e 123e c2e0 323e aebb df3d
00000150: c097 dd3d 284e 923d b293 853c 1508 53bc
00000160: c4aa 0fbc 551a 1d3e 9efb d2ba 13f2 c33c
00000170: 7176 643d 3232 8e3d 91f5 cb3d 6880 4b3e
00000180: 24ef aabc d769 dabc 827c b63d 5710 f63c
00000190: 8a59 753d 4b37 3dbc 70eb a53d 93fb c03d
000001a0: b684 9b3c 79cb 603d b7cd 1e3e e2b5 773c
000001b0: 6ac4 a53c b131 173e 3c17 073e 843a dcbb
000001c0: 4a01 893d f141 83bc 0d3b 963d ebe1 203e
000001d0: 75a5 943d 1492 413c f99a 033e 42a7 073b
000001e0: 509e 94bb 7dfb 9dbb ced6 fab9 95a1 093d
000001f0: 90d3 e83d ff82 833d 0e35 e83c 83f9 993c
0.039402246 0.060634796 0.014329433 0.08662163 0.13979742 0.0028907738 0.082520194 0.059994373
0.07865315 0.033848796 0.022270907 -0.11799473 -0.0054443907 0.1237058 -0.037177674 0.04223497
-0.028449234 0.07565447 0.11230939 0.19158113 0.03836857 0.014960825 0.021070093 0.08464615
-0.0058428156 0.11698564 0.110008106 0.23392582 -0.020017186 0.09676345 0.105281465 0.102960564
-0.07790479 -0.0013726766 0.051628824 0.040265877 0.00591714 0.16569062 0.10417264 0.18453026
0.12509194 0.087792955 0.09636864 0.008157728 -0.03911653 0.04058429 0.13705777 0.14377691
0.060820516 0.052783597 0.026663676 0.08508956 0.09600866 -0.003915557 0.024082713 0.0887694
0.042122655 0.07202154 0.090566404 0.023478983 0.060614984 0.058116537 0.15354834 0.03529732
0.14133744 -0.015284594 0.05080164 0.0951824 0.007302698 0.06376085 0.067769215 -0.030205667
0.044973485 0.15397875 0.001556065 -0.008228735 0.007925729 0.09552224 0.073551096 0.136902
0.05279649 0.14281626 0.17468551 0.10924469 0.1081996 0.07143813 0.016305778 -0.012880345
-0.008768741 0.15342076 -0.0016096716 0.02391914 0.055777017 0.06943168 0.099589474 0.19873202
-0.020865984 -0.026661796 0.08910467 0.030037088 0.059899844 -0.011548827 0.08101547 0.09422984
0.01898418 0.054881547 0.15508161 0.015119048 0.02023526 0.1476505 0.13192457 -0.006720843
0.06689699 -0.016022654 0.07335482 0.15711181 0.07258121 0.011814613 0.12852086 0.0020699059
-0.004535474 -0.0048212395 -0.00047843758 0.033601362 0.11368477 0.0642147 0.028345611 0.018795734

sequential/dense/MatMul f4 [128, 770]
00000000: 7b49 b73c 1542 18bd 0e42 583e 38d4 6e3d
00000010: a09d 643b 30b0 98bd a057 e33c 558b 4ebd
00000020: 9bc6 8f3d 3969 42bd 1c00 913d 3044 113e
00000030: 641c 0f3d d821 ec3d d898 34bc 4478 8bbd
00000040: 631a cdbb aa3f e6bc c020 463d 3b09 60bd
00000050: ded5 d93d b664 783d dddb aabd e319 cf3d
00000060: ca24 e7ba 7a7a 31bc 50fc 89bc 9a63 6cbd
00000070: 06ae 9bbd b82c e0bd ef83 553d 09f6 62bd
00000080: a207 dfbc a941 313d 9d57 2e3c 93e3 073e
00000090: ab32 be3c d7d7 16bd 6021 14bd 40ac 72bd
000000a0: 3139 053d fae9 033e 280a 3dbc 085f 0e3c
000000b0: dee2 fcbc b83f 483d bc50 b2bc 4cdb 2a3d
000000c0: 387a 85bd b4f0 cb3c e8d9 c53c 04c4 8d3c
000000d0: f04e d63b 605b b83b 4ab0 b6bc e432 253d
000000e0: e99a 1ebd 32a8 293d 9a5a 96bd 63ea 4dbd
000000f0: 00b7 7a3b ecc2 113d c830 3a3c 105e 723d
00000100: f0b8 a33d 74c2 ea3c 8e56 71bd 901f 42bd
00000110: a1e1 96bd 6a1f 31bd 2c2f b93c 0058 2539
00000120: dd14 4abd 8478 583d 87a9 3fbd c3c4 95bd
00000130: ac38 593d 38ed 183d f123 29bd c10d 2fbd
00000140: d7b3 08bd 5482 cdbc 5892 1c3d 842c a13d
00000150: 3c20 86bd d043 1d3c 4445 bebc 0e8e 6dbd
00000160: 6cb1 86bc af19 85bd 2662 e1bc 2006 273d
00000170: a0bf 21bc b04b 34bd 8815 4f3d 512b 56bd
00000180: 88bd ab3c 00f0 61bc c8bf 8e3c 001f 763c
00000190: 44d3 623d 5021 373c 9c6d 983d 4293 d1bc
000001a0: 0856 753d 80d4 b63c ec79 9cbc b815 41bc
000001b0: 9037 8dbb 60cf 99bb 7724 92bd 3449 903c
000001c0: 1e35 083d 826f 953d bbe1 3cbd 5417 8fbc
000001d0: d814 1fbc fb35 30bd 5658 903d b67d 5dbd
000001e0: f824 89bd a0fa 64bd 2a63 9b3d 3078 373c
000001f0: df2d 71bd b6cf 11bd b2af 4dbd 9027 9bbc
00000200: 6206 2e3d 10bf 4c3c 10e4 313d d4f9 373d
00000210: 42e5 a33d 97ec 15bd 28d2 813d 504b a43d
00000220: 7b81 14bd 4094 bb3a 9803 01bc b7a2 a4bd
00000230: 9675 263d 804f a13d 7400 cabc 8ae5 9dbd
00000240: e8c4 bb3c 8015 a73d 7606 8e3d 410e 9bbd
00000250: 0b95 6dbd f073 f9bb 7ee4 2e3d e0d9 79bc
00000260: 4a21 51bd 4c11 d53c f6e9 a4bc c27d 953d
00000270: 4e61 93bd d442 863c d8e2 56bd ac49 553d
00000280: 60b5 183c 3867 23bc 9630 9c3d 2ca2 3d3d
00000290: 3d9f 91bd a0cb 61bc 7883 ed3c 3815 053c
000002a0: 60de 4abb f038 7b3d 0ce5 213d e923 8ebd
000002b0: f211 e0bc 6851 81bd 1036 a7bd 2077 6abc
000002c0: 7c61 cb3c 1090 9a3d 46ae 7bbd 10cf a03c
000002d0: 886d 5c3d ee4f 8d3d 7d15 78bd 905a 26bc
000002e0: a0bd 8cbc d46f 45bd 3059 973b 8007 253a
000002f0: 0083 ecbb 9c11 463d 4681 d1bc b07b bd3c
00000300: 720c 48bd bae9 2cbd 2e02 153d 0964 85bd
00000310: c89c 5cbd 508e 18bc 308f f2bb b832 aa3c
00000320: 183c 323d 6247 853d 4625 00bd 0831 7b3d
00000330: 561f 8a3d 1029 1a3c 1209 2d3d aa5b 9c3d
00000340: 149f 913d 9c33 39bd 4c1e 9b3d 76a5 2dbd
00000350: 804a bbba 446a 1dbd e8a7 3c3d a896 51bc
00000360: d624 8b3d d0ba a53c 228f 62bd f45e a43d
00000370: 0402 513d 08fa 7bbd a8b7 3cbd 3048 03bc
00000380: 44f2 803c 58d8 51bd ba49 9a3d 60b9 f83c
00000390: a8dc 22bd 6fbc 12bd e01b 89bc 2005 29bd
000003a0: c023 f13b 64a7 f83c aa74 79bd 5eb1 823d
000003b0: 801a 273d 3c5d 8d3c da72 873d 6040 553c
000003c0: e219 03bd b89e 753d 464f 853d d295 233d
000003d0: ac4d 63bd 62ff a1bd 9a46 ecbc f3d5 8bbd
000003e0: 7257 e9bc b47d dbbc 8276 cfbd ba7b 7b3b
000003f0: 8dd4 28bd 1992 1a3c 7454 2abd 713e 503d
0.022373905 -0.037172396 0.21118948 0.058307856 0.003488399 -0.0745548 0.027751744 -0.050425846
0.07020303 -0.04746363 0.07080099 0.14186168 0.034939185 0.11529893 -0.011022769 -0.06810048
-0.006259249 -0.02810653 0.048371077 -0.054696303 0.10636495 0.06064292 -0.08342717 0.101123594
-0.0017634865 -0.010832423 -0.016843945 -0.057712175 -0.07601552 -0.109460294 0.052127775 -0.05541042
-0.02722532 0.04327551 0.010641006 0.13270406 0.02321752 -0.036826935 -0.03616464 -0.0592463
0.032525245 0.12882224 -0.011538066 0.008689649 -0.030869897 0.048888892 -0.021767013 0.041713044
-0.06517452 0.02489505 0.024151757 0.017305382 0.006540172 0.005626127 -0.022300858 0.040331736
-0.038721953 0.04142017 -0.073414996 -0.050272357 0.003825605 0.035586283 0.011364169 0.059171736
0.079942584 0.028657176 -0.058920436 -0.04739338 -0.07367254 -0.04324285 0.022605501 0.00015768409
-0.049336303 0.052849308 -0.046792533 -0.0731292 0.053032562 0.037335604 -0.041294042 -0.042737726
-0.033374634 -0.02508656 0.0382255 0.07869819 -0.06549117 0.009598687 -0.023226388 -0.057996802
-0.016442023 -0.064990394 -0.027512621 0.040777326 -0.009872347 -0.044017494 0.050557643 -0.052287403
0.020964399 -0.013790131 0.017425433 0.015022039 0.05537726 0.011177376 0.07442781 -0.025582913
0.0598965 0.022318125 -0.019101106 -0.011784963 -0.004309602 -0.0046939105 -0.07135861 0.017613031
0.03325378 0.07296659 -0.04611371 -0.017467178 -0.009709559 -0.04302023 0.07048099 -0.054074965
-0.06696504 -0.055903077 0.075872734 0.0111980885 -0.058881637 -0.03559848 -0.050216384 -0.018939763
0.042486556 0.012496725 0.043430388 0.04491599 0.08002712 -0.036602583 0.06338912 0.08022177
-0.036256295 0.001431115 -0.007874392 -0.08038848 0.040639482 0.078764915 -0.02465842 -0.07709797
0.02292104 0.08158398 0.06934826 -0.07571078 -0.058003467 -0.007612698 0.042698376 -0.015249699
-0.051057138 0.026009224 -0.020131093 0.07299377 -0.07196294 0.016389288 -0.05246243 0.052072212
0.009320587 -0.00997334 0.076264545 0.046297237 -0.071104504 -0.013781458 0.028993353 0.008122735
-0.00309553 0.061333597 0.039525077 -0.06940443 -0.027352307 -0.06314355 -0.081646085 -0.014310628
0.024826758 0.07547009 -0.061445497 0.019629985 0.053815395 0.06900011 -0.060567368 -0.010153428
-0.017180264 -0.04820235 0.0046187863 0.0006295368 -0.007217765 0.048356637 -0.025574338 0.023130268
-0.048839994 -0.042215087 0.03637903 -0.06513221 -0.053860456 -0.009311274 -0.007402323 0.020776138
0.04351434 0.06507756 -0.031285547 0.061326057 0.06744258 0.009409204 0.04224498 0.07634671
0.0711042 -0.045215234 0.07574138 -0.042394124 -0.001428917 -0.03843142 0.046058565 -0.012792267
0.06794135 0.02023068 -0.055312283 0.08025923 0.051027313 -0.061517745 -0.046073586 -0.008012816
0.015740521 -0.051231712 0.075335935 0.030361831 -0.039761215 -0.035824236 -0.016736925 -0.041264653
0.007358998 0.030353256 -0.060902275 0.06381486 0.040796757 0.017256372 0.06613703 0.0130158365
-0.032007106 0.05996582 0.06509261 0.0399378 -0.055493996 -0.079100385 -0.02884226 -0.06827917
-0.02848408 -0.026793338 -0.101300254 0.0038373307 -0.04121833 0.009434246 -0.041584447 0.0508408

sequential/dense_1/MatMul f4 [64, 128]
00000000: 830c 3b3e 8a0f 8d3d a8c7 11be 570d 8f3e
00000010: d14f 07be 6a07 553b bb90 4f3e b863 0dbe
00000020: 9eb5 c43e 83fb 5b3e b44e 663d 5478 c33d
00000030: 1f7b 9a3d 569a c4bd 8b3a d13d a27d ffbd
00000040: 98ce 01be 66d2 91be 2e59 813d c72f 923e
00000050: ea14 87bd bd32 cc3d ed2a b0bd 7737 25be
00000060: 637c 5b3d e516 903e ec9d a63d a781 13be
00000070: 02d6 c43e eda7 57be e28f 35be 44f7 063e
00000080: 3564 073f e006 c7bd f789 9e3e eb2d 51be
00000090: 01a4 d13c 4cc4 ecbe 9e44 0e3e 6862 2c3d
000000a0: d898 c4bc cdcf c3bd 1ccf 0d3e 283e c93e
000000b0: 2a24 9c3d 3b90 a2bc 7d96 583e d2a0 d53b
000000c0: 6808 db3d c7e5 b0be be48 14be 3482 0d3e
000000d0: d7b1 813e 22ac b43e e32f dcbc a717 3e3c
000000e0: 264b 133e 5041 e5be f9be 053d 342e 1e3d
000000f0: b10e bfbd 56b5 0c3d 6b3d b53e 3ae9 823e
00000100: b251 a63e 8169 0b3f 0502 edbe 4718 7ebc
00000110: 4f28 a03d f919 00bd f52d dd3d 3887 7ebd
00000120: 61f8 3ebd 57b2 863d c568 b13e 140c f1bd
00000130: fe0b 5a3e 3102 6b3e 20d2 aebc e735 7fbe
00000140: 973d 1d3e e488 cdbd ce8c 9abd 72b9 fd3d
00000150: 8d5e 103e c91a 273d 7958 043e a176 383e
00000160: 107b 373d b1aa b4be 9e12 b9be 0c19 803b
00000170: ec5c 2c3d 1b84 81be bb61 dfbc d7c5 f5bd
00000180: 62bd 01bd a2af 15be b2b4 373e 2ff6 2ebe
00000190: ee91 01bd 8f74 b03d 8f5b 933d 936e ccbe
000001a0: f653 ac3d d734 4a3d 6a91 81bc 87c0 9b3e
000001b0: 0a95 803d c2e8 2cbe ae46 98be 48e3 bc3d
000001c0: 56b9 39bd 667d 83bc df71 5bbc 59a5 cdbe
000001d0: 9f15 1c3e 72e3 6e3e e1fc 993e a808 7e3d
000001e0: ca0d 59be fd9f a73d ca0a fabc 48ec da3e
000001f0: 2ac6 bcbc 04d0 01bf f53a e33e c61a 04be
00000200: 65e3 a9bd 320a 173e e692 85be b35a c7bd
00000210: a248 8a3e 96ef fe3e 8fdd 753d b68d 89bd
00000220: 4b1f 90be 551e 2dbd 2282 423e c80d dd3d
00000230: 3bfb 503d e20b 39be 233e 463e 82fa b7be
00000240: 7d48 ab3e cdb0 803e ef32 5e3e 0c7e ff3c
00000250: 7d94 47bd 260d 19be dcc4 9b3e 3172 333c
00000260: 696a 703e c983 2f3e 8fa9 79be 5f63 1cbe
00000270: 14c6 f73d e3e6 32be c3ff febd ba8a d03e
00000280: df0c 0c3f 2579 19be c782 9bbd 8a7c a23c
00000290: 724f 29ba 9aba cabe d981 8abe 52e8 c9bb
000002a0: 97dc 293d f42a 073d f642 9f3e 15ef 4dbe
000002b0: 3bba bfbd 5e37 3c3e 1565 3d3e be40 df3d
000002c0: 4d96 843e ec59 d6be d327 90be 3ba8 143e
000002d0: bd59 093f cf86 a83e 8f5b b13d a05c f43b
000002e0: 67ee 033e e23e d73d 1819 f5bd 3e2f 9abc
000002f0: 7700 d7bd 6cef ae3d 4087 26be 7d07 923d
00000300: d22c 76be 22bb 483e bfed 123e f2f3 42be
00000310: 4340 d13d 1b8d 0abd 9d30 7a3e c29a bd3e
00000320: 55bc 96be ce81 9ebd f0ec 2dbd c5b7 4c3e
00000330: dfd3 4a3c fd56 ab3e cc59 3d3c d396 733e
00000340: 212f a43e f3d1 9c3e 3138 80be 8404 b0be
00000350: fc2d 923e 563c e13d 8d01 983c cd02 8d3e
00000360: 745b a13e 3328 1bbe 4d7c ccbd 81b7 c33e
00000370: 894c 403e c483 d2bd f059 0d3e 396a a8bd
00000380: 1a5c 0abd f23a 3f3e a522 aabe a660 60be
00000390: 95cd 2e3e 3429 ab3d 7dec b83c 85b0 043e
000003a0: 07d1 c8bd 9cd2 123e 64eb c63d 3336 c73e
000003b0: 272e c63c 3a59 3bbe 35eb c2bc 3bd4 7d3e
000003c0: 8381 30be 5ce9 c4bd 92dc 023f 6931 93be
000003d0: a9c7 b2bd ace7 6e3d 6d8a ca3c 5724 b73c
000003e0: 5be7 b4bd c173 bfbd 1e6a 21be 2fa8 1f3d
000003f0: b2a7 f23c 0951 b0bd 53fa 063e 3e62 3e3d
0.18266492 0.068877295 -0.14236319 0.27939865 -0.13214041 0.003250564 0.20270054 -0.13807571
0.38419813 0.21482663 0.0562274 0.09544435 0.07543015 -0.0959975 0.10216244 -0.124751344
-0.12676466 -0.28480834 0.06315838 0.28552076 -0.06595786 0.09970615 -0.086019374 -0.1613444
0.05358542 0.28142467 0.0813559 -0.14404927 0.38444525 -0.21060152 -0.17730668 0.13180262
0.5288728 -0.09718108 0.30964634 -0.20427673 0.025590898 -0.46243513 0.13893363 0.042086035
-0.023998663 -0.09561119 0.13848537 0.39305234 0.07624085 -0.019844165 0.21151157 0.0065194154
0.10694963 -0.34550306 -0.14480874 0.138192 0.25330994 0.35287577 -0.026878303 0.011602319
0.14384136 -0.44776392 0.03265283 0.03861828 -0.09328974 0.034352623 0.3539842 0.25568563
0.32484204 0.5445786 -0.46290603 -0.015508718 0.07820188 -0.03127477 0.10799781 -0.062140673
-0.04662359 0.065769844 0.34650245 -0.11769882 0.21293637 0.22950055 -0.02134043 -0.24922906
0.15355526 -0.100358754 -0.075463876 0.123888865 0.14098568 0.04079703 0.12924375 0.18014003
0.044795096 -0.35286477 -0.36147016 0.003909236 0.042080805 -0.252961 -0.027268281 -0.120006256
-0.03167475 -0.1461778 0.17940024 -0.17086099 -0.03163331 0.08615982 0.07195198 -0.3992811
0.08414452 0.0493668 -0.01581641 0.30420324 0.06278427 -0.16885665 -0.29741424 0.09223038
-0.045342766 -0.016051006 -0.013393848 -0.40165213 0.15242623 0.23328951 0.30075744 0.062019974
-0.21196666 0.08184812 -0.030522723 0.42758393 -0.02304371 -0.5070803 0.44380918 -0.12900838
-0.08295325 0.14749983 -0.26088637 -0.097340964 0.2700854 0.49792165 0.060025748 -0.06716482
-0.28148875 -0.042265255 0.18994954 0.10793644 0.051020842 -0.18070939 0.19359641 -0.3593331
0.33453742 0.25134888 0.21699117 0.031188034 -0.048725594 -0.14946422 0.3042363 0.010952518
0.23478092 0.17140116 -0.24381088 -0.15272282 0.12098327 -0.17470889 -0.124511264 0.4073084
0.5470714 -0.14987619 -0.07593303 0.019834775 -0.00064586767 -0.3959549 -0.2705219 -0.006161728
0.041470136 0.032999948 0.31105775 -0.20110734 -0.093616925 0.18380496 0.18495591 0.109010205
0.2589592 -0.4186548 -0.28155383 0.145173 0.53652555 0.3291535 0.086600415 0.007457331
0.12883912 0.10510041 -0.11967677 -0.018821355 -0.104981355 0.0854176 -0.16262531 0.071303345
-0.24040535 0.19602636 0.14348505 -0.1903837 0.10217335 -0.033825975 0.24432607 0.37032133
-0.2944056 -0.07739602 -0.04246229 0.19991978 0.012379616 0.33464804 0.011557054 0.23788004
0.32067207 0.3062893 -0.2504287 -0.34378445 0.28550708 0.10997836 0.018555427 0.275412
0.31515086 -0.15152054 -0.09984646 0.3822594 0.18779196 -0.102790385 0.1380384 -0.08223385
-0.03377924 0.1867483 -0.33229557 -0.21911868 0.17070611 0.08357468 0.022573704 0.12957962
-0.09805494 0.14338154 0.09712866 0.38908538 0.024191929 -0.18295756 -0.023793796 0.24787991
-0.17236905 -0.09614822 0.51117814 -0.28748634 -0.087294884 0.05832641 0.02472421 0.022356195
-0.0883319 -0.0934825 -0.15763137 0.03897875 0.029620979 -0.08609206 0.13181429 0.04648041

sequential/dense_2/MatMul f4 [28, 64]
00000000: 6ad4 49bf af46 2ebf 930c 2ebf 3de3 09bf
00000010: 93ba 073e 78ea 403e 50a8 513e 1545 293e
00000020: b90b 8b3c 834f 4abf ce1b 35bf 458d 07bf
00000030: 2ac3 a2be 6827 0bbe 3827 343e 7d56 08bf
00000040: cf62 2fbf 8a92 29bf fc9d 1ebb 1595 5e3e
00000050: 4f47 f1be 2eb1 48bd 1d56 b6bd 311e 103e
00000060: f1f2 f3be 62a8 20bf 309c dfbc 0eae 66bf
00000070: 3ca8 1d3e 3526 1fbf 1ea4 503e b757 35bf
00000080: 7459 003e d6d3 403e 9d77 4dbd 4348 ecbe
00000090: 4f96 33bf 8764 643d b41a 1abe 2aa6 bfbd
000000a0: 5928 0ebf 845c 22bf 6be6 43bf a544 1fbf
000000b0: 2c4a 503e 9388 543e d709 a33c 4c85 353e
000000c0: e968 4cbf b4bd e6be 0ab1 11be 732d 2b3e
000000d0: e7f4 5abf 789b ea3d 552c 423e 9297 fbbe
000000e0: d76d c0bd c089 90be ff6e f2bd d1f7 07be
000000f0: 709e 6fbd f1c4 cabd 53c2 cfbe 1892 22bf
00000100: dfd2 dbbe 6906 2c3e fd5f c4be 69be c2be
00000110: dfa7 71bf 1922 8abe 565d 2e3e 1a6d 2e3e
00000120: fa47 29bf f5cc 4bbf 4c52 813b bc0e 3a3e
00000130: 8a3f 53bf 9a1e 86bb 2176 833d be20 47be
00000140: 1ca9 d1be 17cd 0cbf 6cc7 b4bd caa4 133e
00000150: 8f89 4bbf 4f5f 4ebf b0ad 703d 9262 313d
00000160: 238d f0be e694 753b c598 263e 6301 2fbf
00000170: 886d 013e 1560 f1be 32c5 2c3e aaef 453e
00000180: 5ef6 7dbd 65bb 2abf c07e f33d 8c25 15bf
00000190: b7ec 21bf 343d cdbe 2272 0a3e b498 7bbf
000001a0: 57f0 133e 4c1d 51bf 9456 fabe 9269 febd
000001b0: b37c 27be 4c17 e5be 5318 923d 7525 183e
000001c0: 2bde b93c 565b 0dbf 215f 2fbf daf6 363e
000001d0: 38ff 973b 644c e0bd 1701 21be 0f49 38be
000001e0: 8284 d6be e6e7 6abf 0cfd b6be 0388 2bbf
000001f0: 144b 67bb d1f9 39be 8146 e73d 8ee9 883e
00000200: 85b0 5cbf a13f bfbe 8ed9 be3c dd5d 74bd
00000210: 77b1 11bd fd63 d83c d605 813e cae5 a1bd
00000220: 8909 ebbe 67bf 05bf ccda 063c 0f91 21bf
00000230: 941c 91bf 5f25 913c e8be d03d b66f 39bd
00000240: bbae b0be 3a2c e7be d99c 043e f896 c73d
00000250: 3fde 033e 09fc 0fbf 9037 2fbe bc8b 903d
00000260: 033e 3f3e c469 a6bd a7c3 913d d73a 02bd
00000270: 7ecd e8be d723 743e de52 bbbe c3fb 80be
00000280: 98a7 35be dcc8 f0be ce0c 753d 7cb4 26be
00000290: 8b83 19bf 44d3 19bf 33d0 aabe a8a2 4ebf
000002a0: 6a92 e33c 2db0 eebe 1989 4abf 656d 8a3b
000002b0: f2d6 3ebe 8745 943c 6798 ddbe 0a4b 4e3e
000002c0: 0b73 33bf ba30 403e 9525 4b3e 60ea 213e
000002d0: acff 20bd f18e 6bbe 69f2 05bf 2164 3cbf
000002e0: b062 3a3e f964 f5bd 8042 13bf 0101 dcbd
000002f0: 1e91 223e 1e60 0dbf c815 31bf 3f3d 683e
00000300: 4990 2a3e f61c ec3d 72f6 98be eb1e 4d3d
00000310: 9096 31bf 7316 01bf cfe0 843e b6ab ed3d
00000320: 79ec 003e 300c e93d 7d7b c43d 2535 ccbe
00000330: ed4b 15bf acad 0fbf a61f 40bf ab74 7dbe
00000340: e835 b53e bed1 ecbe 0a29 38bf 10e5 fabe
00000350: 94b6 84be 0777 f4be f58e 44be cca5 73be
00000360: 600a a8be acdf cb3d 149f 4bbe e4e3 a0bc
00000370: 5b8b 043e 6e9e c5be 009f 2a3d 04a0 0cbf
00000380: e66a 21bf e4ed 08bf 52de 333d 1ec5 243e
00000390: 122c 603e b122 303e aea0 a13d 9ab0 3dbe
000003a0: daff 19bf 5565 42bf 8090 3cbf d37d 39bc
000003b0: ab55 803d 574a 4b3e 34a0 2cbf b241 f4be
000003c0: 50f7 5fbd e8ac 4dbe 2e77 29bf 9292 a6be
000003d0: d487 5a3e 1799 3d3e 5a54 1dbf 9adf 033e
000003e0: d669 1fbf a112 51bf 4c79 98be bd8e b2be
000003f0: ab49 0fbf abc4 713e 62ab 99be e76d 13bf
-0.78839743 -0.68076605 -0.67987937 -0.53862363 0.13254766 0.18839443 0.20474362 0.16530259
0.016973363 -0.79027575 -0.7074555 -0.52949935 -0.31789523 -0.13589251 0.17593086 -0.5325697
-0.68510145 -0.66239226 -0.0024203053 0.21736558 -0.47124717 -0.048997097 -0.089031436 0.14074017
-0.47646287 -0.6275693 -0.027296156 -0.90109336 0.15396208 -0.62167674 0.20375106 -0.7083697
0.12534124 0.18830809 -0.0501629 -0.4614888 -0.7015123 0.055759933 -0.15049249 -0.09357865
-0.55530316 -0.6342242 -0.76523465 -0.6221412 0.20340794 0.20755224 0.019902153 0.1772663
-0.7984758 -0.45066607 -0.14227691 0.16716556 -0.8552994 0.114554346 0.18962224 -0.49139076
-0.0939595 -0.28230095 -0.11837577 -0.13278128 -0.058500707 -0.09900845 -0.40577945 -0.6350417
-0.4293432 0.1679932 -0.38354483 -0.38035896 -0.94396776 -0.2697914 0.17027792 0.17033806
-0.6612545 -0.79609615 0.003946578 0.18169683 -0.8251883 -0.0040930035 0.06419016 -0.19446084
-0.40949333 -0.5500044 -0.08827099 0.14418331 -0.7950677 -0.8061418 0.05875939 0.043306895
-0.4698268 0.0037472784 0.16269214 -0.6836149 0.12639439 -0.47143617 0.16872099 0.19329706
-0.062002532 -0.6669219 0.1188941 -0.58260417 -0.63251823 -0.40085757 0.135201 -0.9827988
0.14447151 -0.8168533 -0.4889418 -0.1242248 -0.16356163 -0.44744337 0.07133546 0.14858039
0.022688946 -0.5521749 -0.6850453 0.17867604 0.0046385787 -0.1095207 -0.15723072 -0.1799662
-0.4189797 -0.917601 -0.35739934 -0.6700441 -0.0035292553 -0.18161704 0.112927444 0.26740688
-0.8620685 -0.37353233 0.023297098 -0.059659828 -0.035569634 0.026414866 0.25199765 -0.07905157
-0.45905712 -0.5224518 0.008230876 -0.63111967 -1.1336846 0.017718015 0.101926625 -0.04527255
-0.3450831 -0.4515093 0.12950458 0.09745592 0.12877749 -0.5624395 -0.17111039 0.07057902
0.18676 -0.08125642 0.07117396 -0.031794395 -0.45469278 0.23841797 -0.3658666 -0.2519208
-0.17739713 -0.47028244 0.059826665 -0.16279787 -0.59966344 -0.6008799 -0.33361968 -0.80716944
0.027779777 -0.46618786 -0.79115444 0.0042244666 -0.18636683 0.01809956 -0.43280336 0.20145813
-0.70097417 0.18768588 0.19838555 0.15812063 -0.039306328 -0.23003747 -0.52323014 -0.73590285
0.18201709 -0.1198215 -0.57523346 -0.10742379 0.1587567 -0.5522479 -0.6917386 0.22679614
0.16656603 0.11528961 -0.29875523 0.050078314 -0.69370365 -0.5042488 0.25952765 0.11605017
0.12590207 0.11379278 0.09593866 -0.39884296 -0.5831898 -0.5612438 -0.7504829 -0.24751537
0.3539269 -0.4625377 -0.7193762 -0.49002886 -0.25920546 -0.4774706 -0.19195159 -0.23793715
-0.32820415 0.099547714 -0.19884902 -0.019639917 0.12943785 -0.38597435 0.04165554 -0.54931664
-0.6305374 -0.5348799 0.043913193 0.16090819 0.21891811 0.17200734 0.07891975 -0.185244
-0.60156024 -0.7593587 -0.7365799 -0.011321503 0.0626634 0.19852577 -0.6743195 -0.47706372
-0.054679215 -0.2008549 -0.6619748 -0.325337 0.21340877 0.1851543 -0.61456835 0.12878266
-0.6227087 -0.8166905 -0.29780042 -0.34874526 -0.55971783 0.23610179 -0.30013567 -0.5758957
