chatbot_model_lite.tflite (tflite, 393352 bytes, 6 tensors)

sequential/dense_1/BiasAdd/ReadVariableOp f4 [64]
00000000: 844e 4bbd 96fb 93bd 97ad e43c 2fc5 ab3c
00000010: 2d52 7fbc 78ce 593d d64a 123d 9b26 c73d
00000020: 540b a1bd 0a79 95bd a6e6 60bd 0742 083e
00000030: 94a3 463c 360d 7a3c 0b8b 46bc 4d2c ce3c
00000040: 9893 c6bd 60bc 643a 9d70 2c3c e3dc 8b3d
00000050: 79eb 183e 0364 16be 3f56 103d 266c b9bd
00000060: f5ec 203e df66 a0bd 85e4 65bd 37e6 b13d
00000070: 8e19 15bd 7124 9f3d ea7b 5f3e 54c8 eabc
00000080: 03ed c33d e5e2 e43d 785c 343d 1b70 c73d
00000090: ca0b 023d b1af 193e 464e 313d de35 acbd
000000a0: 0697 b5bd ef1b ba3c 8831 863d 810a c43d
000000b0: a855 a13d e15f c03d ca77 053d a2a3 b33b
000000c0: d8eb 163d 1cb5 243e 0556 6dbd d6e0 46bc
000000d0: 0c0b fc3d a3af 38b8 b2fc a0bd 1d6d 93bd
000000e0: 31f0 f83c 834f b5bc 609c 76bd a45b 82bd
000000f0: 20b9 e63d 3bcd c33d 875f fabc 05f4 3abd
-0.049635425 -0.072257206 0.027914805 0.020968048 -0.015583557 0.05317542 0.0357159 0.0972416
-0.07863489 -0.07298477 -0.054907463 0.13306437 0.012123961 0.015261939 -0.012118111 0.025167609
-0.0969612 0.000872558 0.010524896 0.0682924 0.14933576 -0.14686589 0.0352385 -0.09053831
0.15715392 -0.07832121 -0.056126136 0.08686488 -0.036401324 0.077706225 0.21824613 -0.028659977
0.09566691 0.11176089 0.044033498 0.09738179 0.031749524 0.15008427 0.043287538 -0.08408712
-0.08866696 0.022718398 0.06552416 0.09572316 0.07877666 0.093932875 0.032584943 0.005482153
0.036846012 0.16084713 -0.057943363 -0.012138566 0.123067945 -4.4032593e-05 -0.07860698 -0.07198546
0.03038797 -0.02213264 -0.060207725 -0.06365135 0.112657785 0.09560629 -0.03056313 -0.04564287

sequential/dense_2/BiasAdd/ReadVariableOp f4 [23]
00000000: 0333 a33b 1fd1 22be 1689 b2be 4013 b8be
00000010: 714c 1cbe 629d abbe 611b b2be e44b 3e3e
00000020: 04e7 cf3c f8c1 153e 6f46 b9bd b34b 323d
00000030: 5f4c 32be c821 2cbd bce2 5e3e 22b2 0cbe
00000040: 0e84 c9bd 38c3 9dbd f52c 8a3d 80b0 57bd
00000050: 9ffc 0dbe fd36 43be b1eb 0cbd
0.0049804463 -0.15900086 -0.34870213 -0.35952187 -0.15263535 -0.3351851 -0.34786513 0.18583637
0.025378712 0.14624774 -0.09046637 0.043529224 -0.17411946 -0.042024404 0.2176618 -0.13739827
-0.098396406 -0.07703251 0.06746856 -0.052658558 -0.13865899 -0.19063945 -0.03440446

sequential/dense/BiasAdd/ReadVariableOp f4 [128]
00000000: 4537 643d a721 e43d 00b8 3b3c 3166 a33d
00000010: a1d5 50bd d4e9 0a3d be2e 26bc b328 403d
00000020: 00d8 7dbc 8e7d a33c 66c4 bc3c 0d4b 293b
00000030: 042a 93bc f721 e13c 498b 0e3d fc6f 613d
00000040: 22b9 9dbd e191 423e 9c39 073d 67b7 863d
00000050: 47c5 f03c 20e2 60bd fae2 c93b 171d 0b3d
00000060: 97ac bc3c 68c8 b4bd 72e9 87bc 032a 9f3d
00000070: 20b6 12bd 5256 063e 59c4 fa3d 097f 983d
00000080: 7393 d4bc 209a 853d 5778 193e c6da 4dbc
00000090: 43d7 fe3d 865e 5f3d 6c58 173d 08d0 9a3d
000000a0: df85 d43d dc17 a8bc 5733 2dbe 9e34 0fbd
000000b0: b249 603c e684 f23c a49f 2cbb 4395 943b
000000c0: c0b9 1b3e 2081 ebbb bf27 8d3c cd8c 8d3d
000000d0: d3ba 6fbd 77c3 343d a9ec 13bd eceb 9dbc
000000e0: b547 d53c 9f89 033e efcc 4c3d 9d21 113c
000000f0: 4777 d7bb cb9d ffbc 36e7 de3c bd85 a3bc
00000100: 56cf 5b3e 75e0 0f3d a5d2 92bc 737b 833d
00000110: cb00 dc3d 8fcc cc3d fcce c13d b636 a2bc
00000120: 4d94 ff3d 9428 8ebc 5147 083d 3cef 423e
00000130: dac5 13bd ffcc 263d 517d 2bbd 396a 3b3d
00000140: e763 933d 9cfd 4a3e 173e 893d 2ef5 0f3d
00000150: 2cd1 68bd 280b 7a3d 27de 683d 8d62 4bbd
00000160: bfc5 d83c c251 aa3c a105 e43d 73b8 ecbc
00000170: 040b b73d 7122 6d3d 8d0f 9cbd 5dbc 77bc
00000180: 58fc 4c3d 7da9 88bd 46ef e63d d277 263d
00000190: a67b 4d3e 93be 71bc cc06 9dbb af87 943d
000001a0: 2629 c93d 1920 963d 9fe8 363e de54 2f3e
000001b0: f874 e8bc 6836 81ba c63b df3b 24d8 763c
000001c0: 58c6 bebd 206e 0abd b4ef 243e c836 d0bd
000001d0: 0a53 fe3d 6ad5 f63c 257b 723d e23f 023e
000001e0: eb4f 0cbd 4c7f 15bc 01ae 1b3c 522a 80bc
000001f0: 04c2 21bd 728c 003e e5f2 f13d 260e 033e
0.05571677 0.11139231 0.011457443 0.07978476 -0.050984982 0.033914402 -0.01014298 0.046913814
-0.015493393 0.01995733 0.023042869 0.0025832087 -0.01796437 0.027482016 0.0348008 0.055038437
-0.07701327 0.19000961 0.033013925 0.0657795 0.029390944 -0.05490315 0.006161091 0.03396329
0.023031516 -0.08827287 -0.016590808 0.07771685 -0.03581822 0.13118866 0.122444816 0.07446105
-0.025949216 0.06523538 0.14987312 -0.012564367 0.12443402 0.054533504 0.03694956 0.0755921
0.103770964 -0.02051919 -0.16914116 -0.03496229 0.013689445 0.029604387 -0.002634027 0.004534395
0.15207577 -0.0071870238 0.017230866 0.06911621 -0.05852778 0.044131722 -0.03611437 -0.019277535
0.02603517 0.12845467 0.050000127 0.008858112 -0.0065754983 -0.031203171 0.02720986 -0.019961232
0.21465811 0.03512617 -0.017922709 0.064200304 0.10742339 0.09999954 0.09463307 -0.019801479
0.12479458 -0.017353334 0.033271138 0.19036573 -0.036077358 0.040722843 -0.041867558 0.0457556
0.07196789 0.19823307 0.06701296 0.03514593 -0.056840107 0.061045796 0.056852486 -0.049654532
0.02646148 0.020790938 0.11133886 -0.028896546 0.08937648 0.057894174 -0.076201536 -0.015120593
0.05004534 -0.06672952 0.112761065 0.040641613 0.200667 -0.014754909 -0.00479207 0.07252442
0.098223016 0.07330341 0.17862175 0.17122218 -0.028376088 -0.0009858133 0.0068125455 0.01506618
-0.09315175 -0.03379643 0.16107064 -0.10166699 0.12418182 0.03013106 0.05919947 0.12719682
-0.034255903 -0.009124588 0.009501935 -0.01564518 -0.03949167 0.12553576 0.118139066 0.12798366

sequential/dense/MatMul f4 [128, 687]
00000000: 11fd 15be 1651 1d3b bfa0 0e3e 1486 4d3d
00000010: 6866 87bd 01b2 41bd d4e2 4f3d 6c1a 8b3d
00000020: 3d56 a53d 7408 213c bd4d 973c dad3 8e3d
00000030: 6bd0 b9bd 7670 383d f09f 7cbd 8967 b23d
00000040: f5ed 8cbd 6496 933d 5af8 1f3e 102e b23d
00000050: 2a83 c93c c0db 153e 1315 cfbc 6035 923d
00000060: 18c7 d53c 9b0b a63d 8206 df3c 7a5a 263d
00000070: 4312 ba3c 0650 4a3c 3fb5 51bd 3d7c e03c
00000080: 3f8c 8bbc 63d9 203e 0f74 ab3d 7013 7bbd
00000090: 366b b33d 4d30 afbd df3e 153e 5aca 373d
000000a0: 7c4f a83d bf4d a3bd 2800 e3bc ac04 7e3d
000000b0: f897 033c b898 16bd 2c34 aa3c aa7b 0c3d
000000c0: 7ef7 023d b80e ff3c d4aa 99bc 3ee7 4ebd
000000d0: 89cd 53bd e4a5 493d 7585 1cbd 66c5 c7bc
000000e0: 9ea7 ccbc 7243 a03d 065b 0e3d d01c f0bb
000000f0: 8111 48bd ec13 383d 0ef4 07bd 9ed5 8b3d
00000100: 9640 873d 4458 f53c 15b4 9ebd 043d cbbc
00000110: c094 dbbb 55fb 0fbd f0de 663d b025 543c
00000120: 520d 81bd f834 81bd 140a 683d 1859 5e3d
00000130: 7b6e 36bd d829 833c 4bdf 9abd 3086 fcbc
00000140: a9b7 57bd 1029 263d a46a da3c 202c 883b
00000150: ac1f edbc 800a 023b 40c6 d9bc e545 93bd
00000160: 0292 183d d3ae 87bd 59bd 0abd 393f a0bd
00000170: 5442 323d 88e0 303d 6ad5 5dbd 5e2c 943d
00000180: 58b1 5bbc dc37 aa3d 70c9 3b3d b677 9fbd
00000190: fb40 90bd 9d63 11bd 6c67 903d 0070 a139
000001a0: a55c a6bd ce68 22bd 60b6 d5bb 78d3 5dbc
000001b0: eaaf 083d fa27 a9bd e061 b33b d3b7 7ebd
000001c0: 9454 8a3c 5832 f03c d66a 7cbd 16d9 9fbd
000001d0: 2403 d03c 4078 c5bb a8d1 c43c 0c64 9d3c
000001e0: 9039 f4bc 78ff 7cbd 9418 403d 2063 623c
000001f0: 08c3 aebc 4487 e23c e419 a43c d0e9 9ebc
00000200: c406 72bd 80af b8bc d475 06bd b285 903d
00000210: a4c4 8ebd 4cf2 443d 3c1e dabc f017 333d
00000220: 05d8 87bd 9235 76bd 80b7 ae3a 2036 563c
00000230: 485a 93bc c4d5 acbc f01a a7bb b03d 27bc
00000240: 18d5 d53c c023 163d 271c 91bd e06e f5bc
00000250: dc61 633d 1627 043d a049 3c3c 482c a63d
00000260: 80f1 d13a 8e92 e1bc e0bf 623d 80f4 82ba
00000270: 38fe 433d 3e57 9c3d 1420 5d3d 10c0 c2bb
00000280: ce11 6cbd 661b 1dbd 63bb 4fbd 62e9 853d
00000290: 4c1b 69bd a980 a6bd 901e 463d 806d 573c
000002a0: 7489 6a3d a04d 983c 65c2 36bd acd9 8ebc
000002b0: 0759 a0bd 550a 09bd 2c44 8e3d 70ce a63c
000002c0: f460 313d 105b 3fbd 4c58 b7bc a847 943c
000002d0: 7957 00bd 583d 763d b428 a3bc 4e57 0a3d
000002e0: 284a 503d bfa7 6cbd a876 a83d d07b 373c
000002f0: e4d5 b8bc c0b0 023d f5d1 46bd de75 55bd
00000300: d8d5 563d 7613 50bd 6d82 9ebd d351 09bd
00000310: 32c9 ebbc 0037 83bd 0054 bc38 5449 8b3c
00000320: d8fc 92bd e0e1 21bc da9b a83d cc3b 99bd
00000330: b0a5 4c3d b094 443d 6870 373d 7eae 8d3d
00000340: a88b 97bd 400d 9e3c 882d 4b3d de18 ab3d
00000350: 0ca0 193d 4ee4 f8bc 04a2 8b3c 53ce 18bd
00000360: 0c7c 66bd 16ac a4bd 7e2b 1abd 3c63 9abd
00000370: 58d4 eb3c a970 e93b bd78 27bd 87ba 09be
00000380: 2b37 8ebc fc23 3bbb 4894 613d 93c6 7d3c
00000390: 94a1 0dbd caa6 73bd a6f8 adbd 731f 56bc
000003a0: 9614 cb3d 178b 24bd 40e2 3fbd 9b3b ddbc
000003b0: 071e 01bc cf5e 9d3d 6170 d6bd 1738 58be
000003c0: 63de c0bd fb9a 48bd f488 a2bd fea5 a4bd
000003d0: 8f67 50bd a870 aabd 05c7 15bd 8fad a73d
000003e0: e5dd 14be 24ab 8dbd 6bed 0e3c 6070 84bb
000003f0: d8d6 0abc 45af f0bd 9541 fdbd 21b0 183f
-0.14647318 0.002400463 0.13928507 0.050176695 -0.06611329 -0.0472889 0.05075343 0.06792149
0.08073089 0.009828676 0.018469686 0.06974001 -0.09072956 0.045029126 -0.061675966 0.08711154
-0.06881324 0.07206419 0.15622082 0.08700192 0.024598677 0.14634609 -0.025278604 0.07139087
0.026095912 0.08107682 0.027224783 0.04061363 0.022713786 0.012348181 -0.05119824 0.027402991
-0.017034648 0.15707926 0.08371746 -0.061297834 0.08760683 -0.085541345 0.14574765 0.044870712
0.082182854 -0.07973813 -0.027710035 0.062016174 0.008031838 -0.036766738 0.02077683 0.034297623
0.03197431 0.031134948 -0.018758215 -0.0505135 -0.051709685 0.04923047 -0.038213212 -0.02438612
-0.02498227 0.07825364 0.034754775 -0.0073276535 -0.048844818 0.044940874 -0.033191733 0.068278536
0.06604116 0.029949315 -0.07749192 -0.024809368 -0.006701082 -0.0351518 0.056364954 0.0129484385
-0.06301369 -0.06308931 0.056650236 0.054284185 -0.044538956 0.016011164 -0.07562121 -0.030825704
-0.052665386 0.040566504 0.026662178 0.0041556507 -0.028945766 0.0019842684 -0.02658379 -0.07191066
0.03724862 -0.06625142 -0.033871982 -0.07824559 0.043520287 0.04318288 -0.054158606 0.07235025
-0.013408981 0.083114356 0.045846403 -0.07786505 -0.07043644 -0.03549539 0.07050976 0.0003079176
-0.08123139 -0.03965073 -0.006521985 -0.013539188 0.03337089 -0.08259578 0.005474314 -0.062187027
0.016886033 0.02932088 -0.061625324 -0.07805078 0.025392123 -0.006026298 0.024025753 0.019212745
-0.029812604 -0.06176707 0.04689844 0.013817579 -0.021333233 0.02765239 0.020031877 -0.0193986
-0.059088483 -0.022544622 -0.032827213 0.0705675 -0.069711 0.048082635 -0.026625745 0.043724
-0.06632999 -0.060109682 0.0013329834 0.013074428 -0.017987385 -0.021098025 -0.0050996467 -0.010207579
0.026102588 0.036655188 -0.07085448 -0.029960096 0.055513248 0.032263838 0.011492163 0.08113915
0.0016017407 -0.027535703 0.055358768 -0.000999108 0.047849864 0.076338276 0.05398567 -0.005943306
-0.057634167 -0.038356207 -0.050715815 0.06538655 -0.056910798 -0.08130009 0.04836899 0.013148665
0.05725999 0.018591702 -0.044618983 -0.017437778 -0.078294806 -0.03345712 0.069465965 0.020362109
0.043305352 -0.046717703 -0.02238097 0.018100575 -0.03133342 0.060117096 -0.01991687 0.033774666
0.05085197 -0.057777163 0.08225757 0.011198953 -0.022562928 0.031906843 -0.048540074 -0.05211436
0.05245003 -0.05079981 -0.077397205 -0.0335253 -0.02878246 -0.06406975 8.980185e-05 0.017002739
-0.07177132 -0.009880513 0.08232851 -0.074821085 0.0499627 0.047993362 0.044784933 0.06918047
-0.07399684 0.019293427 0.04960397 0.083543524 0.03750615 -0.030382302 0.017045029 -0.03730614
-0.056270644 -0.08040635 -0.037639134 -0.07538459 0.028787777 0.007124026 -0.04088663 -0.13450061
-0.01736029 -0.0028555384 0.055073053 0.015489238 -0.03457792 -0.059485234 -0.084946916 -0.0130690215
0.09916036 -0.04017171 -0.04684663 -0.027005961 -0.007880694 0.07684099 -0.10470653 -0.21115147
-0.09417417 -0.048975926 -0.07936278 -0.08039473 -0.05088001 -0.08322269 -0.036566753 0.081874005
-0.14537771 -0.06917408 0.008723597 -0.0040417165 -0.008474074 -0.1175218 -0.123660244 0.5964375

sequential/dense_1/MatMul f4 [64, 128]
00000000: 6ce9 843e 636a 203d cc26 603d 004d 1e3e
00000010: 8b9f 2f3d 5028 2ebd dbaa 19bc 5d50 a53d
00000020: 9e57 b73e e5f5 8dbd 4ddf e83e cace fc3d
00000030: 4400 933e f234 b23b f4c6 95be d82a 3bbc
00000040: f974 833e 85c8 1ebd cdb5 323e 998f 7b3d
00000050: 8456 be3d c750 5d3d bd88 6b3c 3fe3 863e
00000060: c66e ddba 6609 7b3e 84fe 293d 899a 2dbe
00000070: d6ec 0d3e 8e0d c3bd 2801 6e3d 186d 16be
00000080: e399 6ebe fcc6 703c 188e 943c ce32 17be
00000090: 7fed 8c3d 867a 22be a78d 56be 5f2f 353d
000000a0: ec9f 60be d1c7 bcbd 46ca bc3c 5b5a a23e
000000b0: 8681 d9be 4e7e 203e c318 39bd 021a dbba
000000c0: 08c9 163e 5707 05bd 30eb 6bbd dac4 7b3e
000000d0: 75a3 913e c600 533c d867 853e 5a5a f03d
000000e0: cf4d f8bd ecd8 8bbc 1b97 b6be 5651 69be
000000f0: 277f bebd b691 85be c335 0e3c 4db6 9c3e
00000100: b1b1 db3d 96fa 413e 4f47 4c3d a11e 273e
00000110: 6994 99be 5a21 35be cf98 813e 3487 b23e
00000120: c6fe f1bd 7aa3 8e3e 2223 80bb af98 633e
00000130: 00f7 0b3e 1367 c53c 82d3 683d 5099 053f
00000140: 71be 7b3d 71f7 013d a084 a0be bc21 043f
00000150: c0b1 27be 0d6d 123e 52c5 06be 99ba 0d3c
00000160: adf0 f83d 5196 dc3d 5fb9 b73e 65b3 79be
00000170: 9a5a e53e ccdd cebe 9259 ff3c c63b 56bc
00000180: d371 a9be 6ef8 883e ec81 473e 8dfc 0dbe
00000190: d5db ffbd a303 6abd ef47 8abd 1089 983d
000001a0: af63 51be 1df7 203e 2a50 d03d 3243 d43a
000001b0: 71a7 bcbd 4129 143e de91 ac3e cc40 0e3d
000001c0: f3f5 2fbe 6748 863e fbe0 433e 863d e1bd
000001d0: 042c 3dbd 6137 66bd bfc1 16be 4f9c d23d
000001e0: 4801 38bd aec8 eabd 2072 a6be e585 253e
000001f0: 107b 6abe ecc1 01be d01f a93d de07 2ebe
00000200: 4af1 793e ee26 453e c727 793e 406f 81bd
00000210: 46e6 ccbd edf1 703c 10f3 f33d e79d babd
00000220: 9018 74be cc57 d43a 25d2 093e 99ad cebd
00000230: f156 39bc 5ce3 583d bfb0 da3e d160 b3bd
00000240: 2c9d 073e b305 08be 6395 2c3e 7910 50be
00000250: 815a 303e 577c 363e 27dd 713e 2929 05be
00000260: 0d05 0fbe 76cd ed3d df39 373c 184f 1a3d
00000270: e855 79bd e020 41be 1be8 593e 685e d83d
00000280: f7a1 6cbd a72d b13e 0e94 39be 7296 313e
00000290: 5d15 093d 0af4 21bd c54b a2be dbf5 38be
000002a0: 6c26 693b a1c8 393e eb35 5abe 22e7 babe
000002b0: 5504 063b e8a2 18be ebb2 22bd 8d8e db3e
000002c0: 96ac 2bbd aa56 00be e7df b33e 7aa5 9abd
000002d0: 7e4e fa3d 3a0b 783c 7cfb bbba 3870 35be
000002e0: a433 2b3c 4ffa bb3d fb55 8f3e da20 27bd
000002f0: e40f 253e 541a d53d 80c9 6fbe d4a6 49bd
00000300: ade8 b03d edb5 15be 0226 e43d 684b 183f
00000310: 3e27 933d fe65 953e 3058 413d a6b7 a13e
00000320: a60a b73b de40 ccbd 8286 15be 2ffa 79be
00000330: f661 86be c4b3 313d 7526 bf3e c114 213e
00000340: 8758 273e 07d7 99bd c474 c33e 13e9 1fbd
00000350: eed0 7f3d 3faf d93e 58f5 4abd 6ce0 14bd
00000360: 6a71 083e 929f c0bd d619 60bd 08c5 db3d
00000370: fa16 3e3e 1256 a83e 5a3e 4fbd c824 443d
00000380: 89c1 413e ccdb cc3e ea09 d73e 1165 8abe
00000390: 44d6 e2bd 2ca2 9d3d dd97 033e 710b 803e
000003a0: e1c3 8f3e 53cf 3d3d 4293 09bd ec50 91bb
000003b0: a5c1 7e3d 9f2f 23be 4077 5f3e c740 70be
000003c0: 7741 58bd 60e2 d8bd 04c6 e03d a347 1fbe
000003d0: 247a e13d ba06 27be 7fb2 a2bc 86b4 e1be
000003e0: 5d66 583e 0a39 0f3e 8c63 d23c 092b c53d
000003f0: 6933 bebc 4ff3 cb3d 15c7 023e 0c2d aa3e
0.25959337 0.03916396 0.0547245 0.1545906 0.04287676 -0.042518914 -0.009379114 0.08071969
0.35809034 -0.06931666 0.45482865 0.123441294 0.2871114 0.0054384405 -0.29253352 -0.011423789
0.2567518 -0.03876545 0.17452164 0.061416242 0.09293845 0.054032113 0.014375863 0.2634525
-0.0016893975 0.24515304 0.04150249 -0.16953482 0.13859877 -0.0952407 0.05810657 -0.14690053
-0.2330089 0.014695879 0.018134162 -0.14765474 0.06881236 -0.15867051 -0.20952474 0.04423463
-0.21936005 -0.092177995 0.02304567 0.3170956 -0.4248163 0.15673181 -0.04518963 -0.0016716125
0.14725125 -0.032477703 -0.05759734 0.24586812 0.2844502 0.012878602 0.2605579 0.11735983
-0.12124216 -0.01707121 -0.3566216 -0.22784933 -0.09301596 -0.2608773 0.00867981 0.30607834
0.10727251 0.18943247 0.049872693 0.16320278 -0.2999604 -0.17688504 0.25311896 0.34868777
-0.11816172 0.27859098 -0.003910438 0.22226213 0.13668442 0.024097001 0.056842335 0.5218706
0.061460916 0.03173012 -0.31351185 0.51613975 -0.163764 0.14299412 -0.13161209 0.008650445
0.1215528 0.10770858 0.35883614 -0.2438484 0.44795686 -0.40403593 0.03117064 -0.013075775
-0.33094653 0.26752037 0.19483155 -0.13865872 -0.124931015 -0.057132374 -0.067520015 0.074480176
-0.20448183 0.15719266 0.1017154 0.0016194342 -0.092116244 0.14468862 0.33705038 0.034729764
-0.17183666 0.26227114 0.19128792 -0.10998063 -0.046184555 -0.056205157 -0.14722346 0.1028372
-0.044923097 -0.11464058 -0.32508945 0.16164358 -0.22898507 -0.12671632 0.08258021 -0.16995189
0.2440845 0.19253132 0.2433158 -0.063200474 -0.10004859 0.014706117 0.11911595 -0.09112149
-0.23837495 0.0016200482 0.1345907 -0.10091705 -0.011312232 0.0529512 0.42712972 -0.08758701
0.1324355 -0.13283424 0.16853862 -0.20318784 0.17222025 0.1782087 0.23619519 -0.13003983
-0.1396677 0.11611454 0.011183231 0.037673086 -0.060872942 -0.18860197 0.21279947 0.105648816
-0.05777165 0.34605142 -0.18122885 0.17342547 0.03346764 -0.039539374 -0.31698433 -0.18062536
0.003557588 0.1814294 -0.2130963 -0.36504465 0.002044936 -0.14905894 -0.03972141 0.42882195
-0.041912638 -0.1253306 0.3513176 -0.075510934 0.122220024 0.015139395 -0.0014341916 -0.1771859
0.010449324 0.09178602 0.27995285 -0.040802814 0.16119343 0.10405412 -0.2341671 -0.049231365
0.086381294 -0.1462018 0.11140062 0.5949006 0.07185219 0.29179376 0.047203243 0.31585425
0.005585986 -0.0997331 -0.14602092 -0.24411844 -0.26246613 0.04338433 0.37334028 0.15730573
0.16342364 -0.07511716 0.38175023 -0.039040636 0.06245511 0.42516515 -0.049550384 -0.036346838
0.13324514 -0.094054356 -0.05471214 0.1073094 0.18563452 0.32878166 -0.050596572 0.04788664
0.18921484 0.40011442 0.4199975 -0.27030233 -0.11076024 0.076969475 0.128509 0.2500873
0.2807913 0.046340298 -0.0335877 -0.0044346955 0.062196393 -0.15936135 0.21822834 -0.2346221
-0.052796807 -0.105900526 0.109752685 -0.15554671 0.110096246 -0.1631116 -0.019860504 -0.4408304
0.21132798 0.13986602 0.025682233 0.09627349 -0.023217874 0.09958517 0.12771256 0.33237493

sequential/dense_2/MatMul f4 [23, 64]
00000000: 6b24 1bbf 16ad e0be 2681 c8be 5b77 58bf
00000010: 992f 48bf 5680 db3d 19cd 44be c0f6 423e
00000020: 6678 e03d c571 173e 6b7a 41bf 7cb1 923d
00000030: 3b35 d7be 34a6 d03d bd26 683e f4d0 e53d
00000040: 5c34 323e 9a7c 203e 50fe 66bf bdfe d6bd
00000050: b083 fa3d 9fd7 8a3e b863 0bbf 0038 93bc
00000060: 8330 2a3e 9c12 8bbe 94be f5be 05a6 88be
00000070: c071 873e d7e8 14bf 57dc 2ebf ab0f 963d
00000080: 7a8b 56bf b837 eabb a634 5e3d d9ca 09bd
00000090: fdf8 e1bd 2065 833d 1409 2fbe 7d8c 4ebf
000000a0: c4b7 bdbe abfe 2b3e cbd3 e8be f5db f53d
000000b0: 793b 3ebf a4f8 f33d a905 e2be 33f4 54bf
000000c0: e885 02bf ec1d da3d 1553 35bf 7bfc febe
000000d0: 56a2 86be 9a18 8b3e 61ec 753d 78bd 34bf
000000e0: 39c0 11bf 10eb 4cbf a200 32bf 97ee bbbe
000000f0: 1ee7 8bbe 9f34 1abf 19bb 0cbf 3a71 6abe
00000100: d4ae 383e 1047 2abf b339 0c3e 6280 11bf
00000110: 5fed 25be 4d4d 243e d78a 99be 077f 6f3e
00000120: 2cf7 2e3e ec19 af3d 6b54 213e 3c96 12bf
00000130: 25b0 cdbd 70a0 80bf 8781 733b 8415 243e
00000140: 40c4 323e 60a9 19bf fb3b 0ebf 56e7 04bf
00000150: 5a46 f5be 0bb7 363e 627c 3abe 1785 69be
00000160: e7b6 21bd 1003 373e 0a93 aabc 09b2 ffbd
00000170: 9ef3 8fbe 5bc4 603e d742 10bf f79f 2cbf
00000180: fb7d 89be 9b6a 10bf 854b 25bf 6d49 50bf
00000190: cd6b 8abd b2eb 153d d693 f93d c93d 21be
000001a0: fc17 b13d e280 673e 904e 1a3e 819d 3ebf
000001b0: 1db3 18bf efb4 edbb 5eca 75bf bfdd b33d
000001c0: 1fab 853d 5d86 9fbe ac4a 2ebe 0982 19bf
000001d0: 5a38 06be 44b8 543e d292 633c 6356 5ebe
000001e0: 6c68 053e 5f15 0a3d 3b0d 2fbe 552d 193e
000001f0: 5633 f73c 2b47 1cbf ca17 1a3d a144 0fbf
00000200: c80c e6be 24ec 243c 1c5d ffbe 1b0d 1fb8
00000210: f459 5dbf a838 a9bc 8b5f bebe 923a 37bf
00000220: 3af1 333e 77a6 39be 7482 18bf 328f 88be
00000230: ff1c 773e ba13 bbbd 5228 423e 21bb 403e
00000240: e6e4 333e 9d2a 013e 55b0 0c3e 2693 13bf
00000250: 5f60 2d3e 3063 2e3e 8c2b e5bd 4d70 f23d
00000260: 8021 86bd 3641 a93d 4ba9 e03c 49f6 00bf
00000270: f193 283e 6ed3 1cbf 22bf dabe e878 1b3c
00000280: 9817 353e bafb 73bf f813 1dbf 7494 d1be
00000290: 1600 65bf ae6e dcbd 74ed 343d 51cc 4d3d
000002a0: 9141 37bc 3bfb 393e df06 34bf 2e02 3abf
000002b0: 510b 96bd 9078 d83c e260 13bf 4463 b3bd
000002c0: 5d8b ee3d b17c 92bf 3df3 1abf 6588 263e
000002d0: db6b 19be a039 773d e689 b03d c676 b8bd
000002e0: 3b1b c43d 9662 6fbe 657c 97be caba 403e
000002f0: 510e 9cbe 3f42 283e 2574 a5be 9367 a7be
00000300: b6d3 0e3e 97fe 1fbf b589 83bc a125 6fbc
00000310: e273 213e 52b4 aa3d 52e3 ed3d e799 1abf
00000320: 33c3 17be 38f0 1a3e 355c 383e 74f4 0bbf
00000330: 334b 1c3e ea38 f8be d91c d2bd 116b cf3d
00000340: ccc8 f03d 51e3 35bf d11a 39bf 5dd9 e93d
00000350: 8ded 80bf 4961 ec3c a09e 5bbf 21ce 373e
00000360: fb68 30bf 46ba bcbd b51e 4b3e 4cda f8be
00000370: 28ed 18bf d816 37bf 34ab f3be 19a1 76bb
00000380: 130c 01be f467 6fbf c687 313d 81c8 36be
00000390: 6a54 d0be 705c e4bb acfc d03c cb5a 083e
000003a0: 618f c43b 2b36 1bbf 1b3f 63be 4e8b e0bd
000003b0: 79f2 08bf 9b77 72bf d452 c7be e1f7 27bf
000003c0: e3af 3bbf e15c ccbd 429f 563e 2327 68be
000003d0: 52fe 74be e7a1 20be 6d49 1f3d 7741 783e
000003e0: fe8b 033e e39f f93d b863 1b3e 0382 243e
000003f0: b2fa d93d 5919 3ebf 6877 f3bc 36aa 14bd
-0.60602444 -0.43882054 -0.39161032 -0.8455712 -0.7819763 0.107178375 -0.19218864 0.1903944
0.10960464 0.14789493 -0.7557742 0.07162759 -0.420328 0.10187951 0.22671027 0.11221495
0.17402786 0.15672532 -0.902318 -0.10497806 0.12232149 0.2711763 -0.54449034 -0.017971039
0.16620068 -0.27162635 -0.47996962 -0.26689163 0.26453972 -0.58167785 -0.6830496 0.07327207
-0.83806574 -0.0071477555 0.05424943 -0.033640716 -0.11033819 0.064157724 -0.17093307 -0.8068312
-0.37054265 0.16796367 -0.45474085 0.12004844 -0.743095 0.11912659 -0.44144943 -0.8318512
-0.50985575 0.106502384 -0.708299 -0.49802002 -0.26295727 0.27167207 0.06003988 -0.70601606
-0.56933933 -0.80046177 -0.69532216 -0.36705467 -0.27324766 -0.60236543 -0.5497299 -0.22894755
0.18035442 -0.6651468 0.13693886 -0.5683652 -0.16203831 0.16045113 -0.2998874 0.23388301
0.17086476 0.08549866 0.15754859 -0.5726049 -0.100433625 -1.0048962 0.0037156062 0.16023833
0.17457676 -0.6002407 -0.5556027 -0.5191549 -0.47905236 0.17843263 -0.18211511 -0.22804676
-0.03948107 0.17872262 -0.020822067 -0.124851294 -0.28115553 0.21949904 -0.5635199 -0.67431587
-0.26853928 -0.5641267 -0.6456836 -0.8136204 -0.067588426 0.03660173 0.121864006 -0.15746225
0.08647153 0.22607759 0.15069032 -0.7445908 -0.59648305 -0.007254235 -0.9601191 0.08782529
0.065267794 -0.311572 -0.17020673 -0.5996404 -0.13107434 0.20773417 0.013889985 -0.21712641
0.13028115 0.033711787 -0.17094891 0.14958699 0.030175846 -0.61046094 0.037620343 -0.55964094
-0.44931626 0.010066066 -0.49875724 -3.792076e-05 -0.8646538 -0.020656899 -0.37182269 -0.71573746
0.1757249 -0.18129908 -0.59574056 -0.2667175 0.24132155 -0.09134622 0.18960693 0.18821384
0.17567787 0.12613912 0.1373914 -0.57646406 0.16931294 0.17030025 -0.111899465 0.11837826
-0.06549358 0.08264391 0.027424475 -0.503758 0.16462685 -0.61260116 -0.42723948 0.0094892755
0.17684782 -0.9530598 -0.61358595 -0.40933573 -0.89453256 -0.10763298 0.044171765 0.05024368
-0.011185066 0.18162243 -0.70322984 -0.72659576 -0.07326377 0.026424676 -0.57569706 -0.08759168
0.11647675 -1.1444303 -0.605274 0.16262968 -0.1498255 0.06035769 0.08620052 -0.09007029
0.09575506 -0.23377451 -0.29587093 0.18821254 -0.30479673 0.16431521 -0.32315174 -0.32696208
0.13947949 -0.6249785 -0.016056875 -0.014596374 0.15766862 0.083351746 0.116156235 -0.60391086
-0.14820556 0.15130699 0.18003924 -0.5466988 0.15263061 -0.48480922 -0.102594085 0.10127843
0.11757049 -0.7104998 -0.72306544 0.11418412 -1.0072495 0.028854983 -0.8578892 0.17949726
-0.6891019 -0.09215216 0.19835933 -0.48604047 -0.5973687 -0.7151923 -0.47591555 -0.0037632643
-0.12602262 -0.93517995 0.043342374 -0.17849924 -0.40689403 -0.006969027 0.025511108 0.13315885
0.0059985374 -0.6062953 -0.22192042 -0.1096407 -0.53494984 -0.94713753 -0.3893038 -0.6561261
-0.73315257 -0.09978653 0.2095919 -0.2267118 -0.2392514 -0.15686761 0.038888384 0.24243723
0.12846372 0.12188699 0.15174758 0.1606522 0.106435195 -0.7425743 -0.029720023 -0.03629514
